trained_banana_hunter.pth (torch_old, 28393 bytes, 6 tensors)

fc1.weight f4 [64, 37]
000000 9b 91 8a 3b f5 bf 82 3c 25 0e b1 be 33 f4 01 3d
       0.0042287833 0.015960673 -0.34581104 0.031727027
000010 b7 85 81 be af 4f 51 bd a7 3a cb 3d 10 20 20 3e
       -0.2529733 -0.051101383 0.099232964 0.15637231
000020 8a 9f 5d be c7 f4 a0 bc de cc d7 3d f7 83 bf be
       -0.2164289 -0.019647969 0.10537122 -0.3740537
000030 e9 31 51 be cd 39 19 be 86 ab c6 be 58 bf 23 3d
       -0.20429195 -0.14963455 -0.38802737 0.0399774
000040 53 18 a1 bd 17 3e 41 3d ce 0e be 3c 8d 0e 0b 3d
       -0.078659676 0.047178354 0.023200419 0.033949424
000050 aa 87 dd 3d 95 12 44 3e 70 f3 24 be 0e 5a b5 3d
       0.108168915 0.19147713 -0.16108489 0.08855067
000060 be a9 00 3e 0f c4 9a bb 78 56 f1 bd 5a 52 dc bc
       0.12564752 -0.004723079 -0.11784071 -0.026894737
000070 69 fe 64 bd 52 4d 52 bd 48 66 41 3c 30 7e c6 bd
       -0.055906687 -0.05134327 0.011804171 -0.09692037
000080 98 b2 64 be a0 fa 53 3e 41 89 83 be b8 c3 c1 bd
       -0.22333753 0.20701075 -0.25690654 -0.094611585
000090 80 c9 24 bc 6b bf bb 3d 8b 19 2c 3d b6 dd 88 3d
       -0.010057807 0.091673695 0.042016547 0.06682913
0000a0 89 a4 bd 3d e6 8f a9 be 14 58 13 3e b5 18 67 bd
       0.09259898 -0.33117598 0.14389068 -0.056420047
0000b0 08 ff 0b be 4a 7f e1 be be 19 28 bf 11 43 47 3e
       -0.13671505 -0.44042426 -0.6566428 0.19459178
0000c0 bd 37 12 be 12 43 22 ba a6 eb e6 3d d8 16 6a be
       -0.14279075 -0.0006189804 0.11275415 -0.22860277
0000d0 db d9 b9 3d 74 a1 3f 3b d5 72 93 3d b3 3a 8d bd
       0.09074756 0.002924052 0.07199637 -0.068959616
0000e0 e5 e7 2a b9 f2 94 07 bd c3 87 db be 0a be aa bd
       -0.00016298851 -0.03310103 -0.42877015 -0.08337028
0000f0 21 94 15 3e 32 55 8e 3c ad 17 1f be e2 cc ef bc
       0.14607288 0.017374609 -0.15536375 -0.0292725
000100 fb 25 42 3e 5c b7 f5 bd 35 fb c4 be 9e f1 bf 3d
       0.18959801 -0.11997864 -0.38472906 0.09372257
000110 3c a2 47 bd 16 5d 08 3e 75 b2 db 3d b1 42 a0 3e
       -0.048738703 0.1331676 0.10727397 0.31300882
000120 9a 8f d6 3d cd b0 c6 bc 76 eb 0d bd 58 d7 71 3e
       0.104766086 -0.024254227 -0.03464838 0.23617303
000130 d6 30 25 bc 29 4b f8 3d f1 03 a3 be c0 14 53 be
       -0.010082444 0.12123711 -0.31838945 -0.20613384
000140 ec c5 76 bd 7f a4 6b 3e ae 42 af 3d 09 9e 1f be
       -0.060247347 0.23011969 0.0855764 -0.1558763
000150 45 f8 1e 3e 1e 33 ca 3c da e2 70 be 02 a8 27 bd
       0.15524395 0.024682578 -0.23524037 -0.04093171
000160 ad cb a8 be 65 ea 26 be 72 3b e0 bd 70 53 4c 3e
       -0.32967892 -0.16300352 -0.10948838 0.19953704
000170 3c b2 b6 3e a0 6c 07 3e 8c 55 e0 be b1 a0 83 bd
       0.35682857 0.13225031 -0.43815267 -0.06427134
000180 9b f2 09 3e 24 59 70 3e d3 e1 56 3e 30 86 6e be
       0.13471453 0.23471504 0.20984583 -0.23293376
000190 87 1e ac 3d e9 2a 6c 3e 71 d2 04 be cf f4 81 be
       0.0840426 0.23063244 -0.12970902 -0.25382087
0001a0 4e 44 91 be 8d 67 a9 bc de b1 b2 3b f0 bb 9a bd
       -0.28372425 -0.02067926 0.0054533323 -0.075553775
0001b0 53 0b 53 3e 1d 54 66 3c 70 93 76 bc 2d ac 44 3e
       0.20609789 0.01405814 -0.0150498 0.19206305
0001c0 dc 92 b8 bd e4 97 c9 3d 25 03 b3 3d 4f c1 27 bf
       -0.09012386 0.09843424 0.08740834 -0.6552934
0001d0 b1 b1 2c be 24 ef 0e 3d 04 b8 19 3e 69 e7 32 3e
       -0.16864659 0.03489603 0.15011603 0.17471088
0001e0 df 74 01 bf 5e 2a af 3e 3c 3b 1e be 67 a4 c6 bd
       -0.50568956 0.3421201 -0.15452284 -0.09699326
0001f0 b9 31 19 bf e4 ab 9a be 4c ca 2f 3d 8e 6f 76 3e
       -0.59841496 -0.30209267 0.042917535 0.24065992
000200 80 ec 8d be 16 3a b9 be 7d 84 8f be aa 27 12 3d
       -0.27719498 -0.3617713 -0.28030768 0.035682358
000210 1f 66 ce be c4 35 42 3e 0b d6 49 3e 2a ce 7c be
       -0.40312287 0.18965822 0.19710557 -0.2468802
000220 e0 c1 aa 3d 50 6d f8 bd bc 7b 58 3e 9c 95 7f be
       0.0833776 -0.12130225 0.21140951 -0.24959415
000230 e7 41 b6 bd c1 53 1d 3e cc 7c 2a 3c b9 57 20 3e
       -0.088992886 0.15363981 0.01040573 0.15658464
000240 eb d5 d7 be 5e 9f c1 be 6f 6d 41 bd 42 16 77 bd
       -0.42155394 -0.378169 -0.047223505 -0.06032396
000250 c9 5d f4 3d a0 43 82 be 2f a9 15 bf bf 82 2a be
       0.119319506 -0.2544222 -0.5846128 -0.16651438
000260 24 7e 38 bf cc 2c 00 bd b5 e6 80 3e d1 36 99 bd
       -0.72067475 -0.03129272 0.25176015 -0.074811585
000270 da 83 5d be 0e 30 4c 3a b3 35 6d 3d cb 1e 66 be
       -0.21632329 0.0007789143 0.05791254 -0.22472684
000280 33 19 31 3d 50 3a 61 be 4f 75 b9 be cb d0 e4 bd
       0.043236922 -0.219949 -0.36222312 -0.111726366
000290 86 eb df bd b6 7d fd bd f8 e8 c6 bc 11 87 42 3e
       -0.109335944 -0.12377493 -0.02428101 0.18996836
0002a0 f4 be 32 be 5a 8e 2b bd 2b 62 d6 b8 aa ff ce 3c
       -0.17455655 -0.041883804 -0.000102226004 0.025268395
0002b0 23 e5 7d 3e 39 5c fc bd 5a 10 c9 bc 32 ab a2 3d
       0.2479444 -0.123222776 -0.02454393 0.07942809
0002c0 5c 3d 16 be 00 99 25 bd fc b5 1a be 14 5b 98 bc
       -0.14671844 -0.040429115 -0.15108484 -0.018598117
0002d0 b0 01 1c 3e 7a c1 00 3e fd a5 69 3e cd cc 08 bd
       0.15235019 0.12573805 0.22817226 -0.03339844
0002e0 04 31 1c 3d b9 d6 8e 3d da 5c 24 bd 9e 83 02 be
       0.038132682 0.06974549 -0.040127613 -0.1274552
0002f0 b9 e3 ed 3a 00 be 83 3e 68 2b ea 3d ee 37 57 3e
       0.0018149532 0.25730896 0.1143406 0.21017429
000300 3b 47 4f be 17 bd 5b bd c0 2d 28 bf 62 d5 ff bc
       -0.20242016 -0.053647127 -0.6569481 -0.031229679
000310 e5 b7 4e bd a4 50 3f bd 93 ee 69 be 91 e7 14 bd
       -0.050468344 -0.046707764 -0.22844915 -0.03635365
000320 d4 02 f1 bd d0 d3 78 3d d5 04 b0 bd bf c4 35 3d
       -0.117681175 0.060748875 -0.08594672 0.044377085
000330 fe 31 d6 bd 15 f3 62 3e 11 42 45 be 2c 2a 64 3d
       -0.10458754 0.22163041 -0.19263484 0.05570428
000340 bc 8c 13 3d a4 40 a3 bc 27 e4 15 bd 0d 77 c6 bd
       0.036022887 -0.019928284 -0.036594536 -0.09690676
000350 a1 b4 23 be b8 8a 83 3e 75 08 f0 3d b5 1a 90 3d
       -0.15986873 0.25691772 0.11720363 0.07036344
000360 b2 90 ae bd bc 33 25 be 24 74 ba 3d 86 52 4e be
       -0.08523692 -0.16133016 0.09104183 -0.20148668
000370 fa b5 01 be e7 43 03 3d 5c b3 2a be 02 b1 0f 3d
       -0.12667075 0.03204718 -0.16669983 0.035080917
000380 d0 2e 11 bd bf e5 ba 3d d2 d0 6b 3c a8 da a3 3c
       -0.035445035 0.09125852 0.014393048 0.020001724
000390 13 ca 5e be de b9 8f 3d 82 93 64 3c dc e7 80 3e
       -0.21756773 0.07017873 0.013951184 0.25176895
0003a0 c8 bb 26 3e 0b 63 98 3d 94 44 6d bd ca cf 99 be
       0.1628257 0.07440766 -0.05792673 -0.30041343
0003b0 9e 73 b1 3e d7 f0 9f bd 34 2a 50 be f3 8f 75 3d
       0.3465852 -0.078096084 -0.20328599 0.059951734
0003c0 ff 7c 70 3d e8 4a b7 bd 46 af 91 be 02 1c 7e 3d
       0.058712956 -0.08949834 -0.28454036 0.06203843
0003d0 bf db 6d 3d 03 74 b8 bb 58 6a d2 3e 3f 61 b0 3d
       0.058070894 -0.005629064 0.4109676 0.08612298
0003e0 56 01 8e be f7 19 15 bd 65 04 0a be 47 9e e8 bb
       -0.27735394 -0.036401715 -0.13478239 -0.0070989463
0003f0 f1 cd 55 bd 6a 70 ee 3d 60 8d 1c be 27 5b 0f be
       -0.052198354 0.11642535 -0.15288305 -0.13999616

fc1.bias f4 [64]
000000 32 4f a0 3d aa 7a 1c bd 41 d0 37 be d7 67 52 3c
       0.07827605 -0.03820292 -0.17950536 0.01284214
000010 56 97 fb 3d c3 6b c2 bd ec 5e ec bd 39 97 62 3d
       0.122847244 -0.0949321 -0.115415424 0.05532
000020 e5 6a 50 3d de 15 40 be c5 b3 e7 3d 2d 35 2f 3e
       0.050883193 -0.18758342 0.11313585 0.17110129
000030 04 76 82 3d 87 6c 35 3e 09 29 e5 bc 31 03 ae bd
       0.06370166 0.17717181 -0.027973669 -0.084967025
000040 08 ac b3 bc e8 00 e6 bd e8 ed 80 3d 63 a8 35 be
       -0.021932617 -0.112306416 0.06295377 -0.17740016
000050 8b 9d 11 bd ec fb f3 3c 76 3c ad bb f1 65 f7 bc
       -0.035550635 0.029783212 -0.0052867485 -0.030199977
000060 41 29 0b be 94 9d 43 3d 4a f0 a2 bd b9 44 64 be
       -0.13589956 0.0477577 -0.07955988 -0.2229184
000070 71 eb ea 3d 60 91 1e 3e 35 2d 06 bd b5 44 15 be
       0.11470688 0.15485144 -0.032757957 -0.14576991
000080 47 65 8b 3d c3 54 28 3d 93 03 3a be fc fc 0d 3d
       0.068064265 0.04109646 -0.18165426 0.034665093
000090 e2 0e b9 bd 50 dc 1e 3d 58 52 2b 3d c3 3c 50 bd
       -0.09036042 0.038784325 0.041826576 -0.050839197
0000a0 db a0 3d bd 28 67 fa bc ef 95 95 bd 9a 75 d5 3d
       -0.04629598 -0.030566767 -0.07303988 0.10422821
0000b0 3f 82 87 bc 7f 24 8b bd a3 02 1a 3d f4 2a 34 be
       -0.016541598 -0.067940705 0.03760017 -0.1759451
0000c0 e7 81 6e be bd 57 cc 3d 62 9c 07 be 6f ef 10 3e
       -0.23291741 0.09977672 -0.13243249 0.14153837
0000d0 eb b0 c7 bd 33 14 3f bc 2b 2e 02 be af 5a 12 bd
       -0.09750541 -0.011662531 -0.12712924 -0.035731014
0000e0 6f 69 98 3d 24 44 3c be 43 08 06 be 9b 12 bb bd
       0.07441985 -0.18385369 -0.13089089 -0.09134408
0000f0 7e 37 87 3d 12 08 83 3d 60 c1 cb 3d 3c a0 b2 3d
       0.06602381 0.06398024 0.09948993 0.087219685

fc2.weight f4 [64, 64]
000000 79 83 17 be e2 0f df bd 3c 7f 3e 3d 8b c6 6a 3e
       -0.14796247 -0.10891701 0.04650806 0.229273
000010 ba 6d df 3c fe 6f 26 be 0a 83 39 3e ad 9f fd be
       0.027274001 -0.16253659 0.18116394 -0.49535885
000020 fb 52 22 3e f3 ca ab bd d6 77 41 3d 72 aa 9b be
       0.15851967 -0.08388319 0.047233425 -0.30403477
000030 8c fd 9a be 3e 06 b8 3d 2f 94 0c 3e 27 49 56 bc
       -0.30271566 0.089855656 0.13728403 -0.013078964
000040 94 d4 82 be c7 52 c3 3d 90 08 29 3d b6 ee 67 be
       -0.2555281 0.09537273 0.04126793 -0.22649655
000050 91 f6 cf 3d 27 b9 15 3e 6b 4a 04 3d 5c 10 f9 be
       0.10154451 0.14621411 0.032297533 -0.48645294
000060 6b 2f 92 be 89 3c cb be ae ab 2e bd e5 51 6b 3d
       -0.28551802 -0.39694622 -0.042644195 0.057451148
000070 b3 77 d6 bd dd 58 6b be 15 68 74 3e 43 2f 0f be
       -0.104720496 -0.22983117 0.23867829 -0.13982873
000080 92 4f 03 3e ee 45 7f be 8d 92 f4 bd d1 6b 3b be
       0.12823322 -0.2492902 -0.11942015 -0.18302847
000090 bf 71 d2 bd 2a f0 0a 3c 8d ba 9f bd 37 57 16 be
       -0.102756016 0.008480111 -0.077992536 -0.14681707
0000a0 94 23 06 bf ee 8b d4 be 51 af c9 3e 89 70 a9 bd
       -0.5239804 -0.41513008 0.39391568 -0.082734175
0000b0 01 c4 1d 3e e5 50 e5 be fa b8 98 be 82 43 2d 3e
       0.15406801 -0.4478828 -0.29828626 0.16920283
0000c0 8f dd d1 be 9e a3 42 ba 5d b2 e4 3d 14 e0 8a 3e
       -0.40989348 -0.00074248936 0.111668326 0.27124083
0000d0 09 2f 96 bc f5 39 b1 be cd 8a 57 3e 95 54 f5 bc
       -0.018332975 -0.3461453 0.21049042 -0.029947558
0000e0 6d e9 99 be 34 e0 bb 3d 69 b8 b0 be 8b bf af be
       -0.30060902 0.09173623 -0.34515694 -0.34325823
0000f0 4d 51 16 be 17 68 47 3e de ba fb 3d 92 d6 d9 3d
       -0.14679451 0.19473301 0.122915015 0.10636629
000100 ad 64 16 bd b3 2b 39 3e c8 4f 32 be 32 eb 3f bc
       -0.036717106 0.18083076 -0.17413247 -0.01171379
000110 5f eb 23 be c2 86 d4 bd 8a aa 3b 3d 38 cf 38 bc
       -0.16007756 -0.103772655 0.045816936 -0.011279874
000120 4e 3b 37 be aa 07 4e be f7 d9 5b be d9 7b c1 3e
       -0.17893717 -0.20120111 -0.21469866 0.377898
000130 0d 38 a0 be dd 82 c6 bd 87 01 8a be fe 86 b7 3e
       -0.31292763 -0.09692929 -0.2695429 0.35845178
000140 b1 1e 7c bd 2a d1 83 bc 6c f2 2c be 06 4b e0 3d
       -0.061552707 -0.016090948 -0.16889352 0.109518096
000150 ab 95 e8 bd eb f5 78 bd 5a 1c a1 3e b1 f1 7e be
       -0.11356672 -0.0607814 0.31466943 -0.24896885
000160 cc 3e 5a be dd 5b 48 be d0 37 af 3d 5d c0 d1 bd
       -0.21313018 -0.19566293 0.08555567 -0.102417685
000170 75 10 d3 3d 4a e4 ac 3e 28 91 40 3e cb c9 51 3e
       0.10305873 0.3376792 0.18805373 0.20487134
000180 c6 52 29 be d4 a0 09 be ce 59 53 3c ff 15 cb 3d
       -0.16535482 -0.13440257 0.012899829 0.09916305
000190 3e a4 86 bd 5e 23 17 be 64 6d 84 be cb 25 cc bd
       -0.065742955 -0.14759585 -0.25864708 -0.09968146
0001a0 fd 60 3f be 69 b2 27 3e 93 e2 ac 3e b8 c9 85 3e
       -0.18689342 0.16376652 0.33766612 0.26130462
0001b0 96 bb 31 be 42 65 c6 3c 16 b4 75 be cd 63 eb bd
       -0.17356715 0.024218205 -0.23994479 -0.11493645
0001c0 47 dd 14 3d 26 3d 99 bd a5 4b 84 be 20 8b 48 3e
       0.03634384 -0.07482366 -0.25838962 0.19584322
0001d0 3b 48 7d bc 3e 89 0e bf f5 fd 0e 3e 96 ef 80 bd
       -0.015459116 -0.55678165 0.13964064 -0.062956974
0001e0 5b bb 7d be 2c 3e 4e bd 21 9a 73 3e f4 f7 ba 3d
       -0.24778502 -0.05035226 0.23789264 0.091293246
0001f0 f7 32 70 bd e8 02 bb 3c ad 4b 88 3e fc 41 28 be
       -0.058642354 0.022828534 0.26620236 -0.16431421
000200 63 2c 43 bd b7 9b 98 bd dc 21 81 3e 06 49 40 3e
       -0.047649752 -0.07451575 0.25221145 0.18777856
000210 bc 38 85 3e 46 6d 35 3d 48 16 8b be ce ef 24 bc
       0.26019847 0.044293664 -0.27165437 -0.0100669395
000220 1d 0c 45 3e e9 21 91 be 08 2f d8 3d da c2 84 3c
       0.19242902 -0.28346184 0.105558455 0.016206194
000230 b9 f5 1e be ad 7e e6 bc 2f b7 e2 be 85 18 b4 be
       -0.15523423 -0.028136576 -0.44280383 -0.35174957
000240 16 57 c9 be 02 00 96 3d 4c f8 10 bd d1 d2 8e be
       -0.39324254 0.0732422 -0.035393044 -0.27895215
000250 e0 c5 d3 bd d3 75 38 3d b4 62 14 be b1 a7 92 3d
       -0.10340476 0.04503424 -0.14490777 0.07160891
000260 b4 3b b6 bd 33 bf 4b 3e 6d 51 58 3d a0 39 da be
       -0.08898106 0.19897155 0.05281203 -0.4262209
000270 dc cb 89 3e 19 69 c0 bd 1e 51 2d 3b 16 68 aa bd
       0.26913345 -0.09395046 0.0026446055 -0.08320634
000280 55 b6 8a be 5d 17 88 be 39 13 e1 3c 09 a5 3e be
       -0.27092233 -0.26580325 0.027474986 -0.18617643
000290 82 62 bc bd 8a a2 4d be e6 5e 5f 3e 3f cd f7 3c
       -0.091984764 -0.20081535 0.21813545 0.030249236
0002a0 3f c5 51 3d 15 a6 95 be e9 7a 3f 3e 2a 3a 8d 3e
       0.0512135 -0.29228273 0.1869923 0.27583438
0002b0 16 01 0b 3e 7c 52 b0 bd ea 30 0f bd 8d a8 6a be
       0.13574633 -0.08609483 -0.034958757 -0.2291586
0002c0 33 5b 44 be 8b 41 be be f0 25 c7 bc d7 e4 12 bc
       -0.19175415 -0.3715938 -0.024310082 -0.0089656925
0002d0 34 2a 24 be 04 79 41 3e 0d 64 3f be d5 38 9f b9
       -0.16031724 0.1889382 -0.1869051 -0.00030369186
0002e0 3d 2f 8c 3d f0 a7 a8 bd 57 a6 b9 3d 07 66 5f bc
       0.068449475 -0.082351565 0.0906493 -0.013635165
0002f0 0d f4 6f bc c9 05 0f be c7 ba db 3e 2c 57 07 3e
       -0.014645589 -0.1396705 0.42915937 0.13216847
000300 bf b8 48 be ca 69 e5 be b2 f4 ab 3d 62 2d 0d bf
       -0.19601725 -0.44807273 0.08396281 -0.55147374
000310 ae c0 70 3e b9 0a d4 bd cc e6 36 be 96 37 8d bd
       0.23511001 -0.10353608 -0.1786148 -0.06895368
000320 67 7a da bd 9a f3 b9 3d 26 28 91 3d 17 db 2f 3e
       -0.10667878 0.090796664 0.07087736 0.1717342
000330 78 74 54 be 0f c1 0e bd fc 2e 13 be fe 3c 63 be
       -0.20747554 -0.034852084 -0.14373392 -0.22191235
000340 c1 23 3d 3d 7c fe d6 3d bd ec 7e 3e 2f 0d 8c bd
       0.046176676 0.10497758 0.24894996 -0.06838452
000350 b2 ff 9e bd e9 93 7f bd f3 ef 70 3d 21 0f 56 3d
       -0.07763614 -0.062396917 0.058822583 0.05226052
000360 67 30 b6 3e 4b e3 13 be 43 7d 9c 3e 29 9e 91 3e
       0.35583803 -0.14442174 0.30564317 0.2844098
000370 1d f5 7d 3e 7c b0 5b be d4 86 a8 3e b9 88 d7 bd
       0.24800535 -0.21454042 0.32915366 -0.10524125
000380 ec f3 1d 3d 0c 10 aa 3d ba 1f 19 3e ec 21 7f bd
       0.0385627 0.08303842 0.14953509 -0.06228821
000390 a4 a9 0c 3e e6 8f 11 be 08 32 46 be ba 71 f4 bc
       0.13736588 -0.14215049 -0.19355023 -0.029839385
0003a0 b3 1c 91 bd c5 a4 56 be 68 20 93 bd 78 f5 18 bc
       -0.07085552 -0.20961292 -0.071839154 -0.009335868
0003b0 36 12 e3 bd a2 6b 45 3e d2 aa c5 bd f9 35 75 be
       -0.11087458 0.1927934 -0.09651722 -0.2394637
0003c0 e3 4d 50 bd 9a a7 a6 be bb b3 8b bd e4 a7 e8 bc
       -0.05085553 -0.32549745 -0.0682139 -0.028400369
0003d0 c4 8a 68 be ce 5e 54 3d e2 9f f6 be 11 09 21 3e
       -0.22709185 0.051848225 -0.48168856 0.15726115
0003e0 7f 16 b8 3d a4 5d 23 bd af b7 99 bd ae 74 82 3e
       0.08988666 -0.039884225 -0.07505738 0.25479645
0003f0 96 7f 79 bd 9b c1 40 be da f0 74 bd f2 24 17 3e
       -0.06091269 -0.18823855 -0.059800006 0.14760187

fc2.bias f4 [64]
000000 59 8f 75 bd 97 0f bf bd e1 bb 40 bd 04 e5 93 bd
       -0.05995116 -0.093291454 -0.047054175 -0.07221416
000010 43 b2 4c 3e 55 23 86 bc 75 6b a5 3d 17 7e 2c 3c
       0.19989876 -0.01637427 0.080771364 0.010528109
000020 5e 13 92 3e 2c 62 05 3f ab 4b 02 bd 26 8e 25 3e
       0.285304 0.52102923 -0.031810444 0.16167507
000030 68 bf a9 bc 84 9c 33 be 6e 18 0f bd 9c 79 83 3d
       -0.020721152 -0.17540175 -0.034935407 0.064196795
000040 2b 31 32 3d 8d 6f 5f bd b0 15 2c be 40 8d 82 3e
       0.04350392 -0.054549742 -0.16805148 0.2549839
000050 74 53 a4 3e 13 08 17 3f fb 7e d7 bd 74 0d 41 be
       0.3209492 0.58996695 -0.105222665 -0.18852788
000060 e7 06 df bc 55 7e 34 be 1b 5f 70 3d f1 a8 80 bc
       -0.027224971 -0.17626317 0.05868445 -0.015705558
000070 14 a4 31 bd d5 f4 1d 3e 6b 9f e6 3d 25 71 6f 3e
       -0.043369368 0.15425427 0.11260875 0.23383005
000080 0a 9f 04 be 78 66 93 bc cb d0 fd bb 6f c0 50 3b
       -0.12951294 -0.017993197 -0.0077458373 0.003185298
000090 a1 d8 e6 bd a0 d5 0b be b9 bc f2 bb b6 31 d9 3d
       -0.112717874 -0.1365571 -0.0074077514 0.10605185
0000a0 b4 c7 71 be 4a bb 00 3f 26 25 fd 3e 44 7e 18 be
       -0.23611337 0.5028578 0.49442405 -0.14891917
0000b0 ef a3 0e 3b 3c 08 39 be 49 f1 d8 3e bb d4 1a be
       0.0021765193 -0.18069547 0.42371586 -0.15120213
0000c0 ff d8 4f bc 38 5b 2f bd 32 43 73 bd bd f3 05 3f
       -0.012686013 -0.042811602 -0.059390254 0.5232504
0000d0 18 79 40 3d 41 83 78 be 31 67 56 3e d5 58 40 3e
       0.046990484 -0.2426882 0.20937802 0.18783887
0000e0 a0 88 2f be c1 e8 63 be 4a 03 98 bd ff 1e 0c bd
       -0.17141962 -0.22256757 -0.07422502 -0.034209248
0000f0 1c 98 b9 3b 4c 7e e5 3e 5e 12 47 bd e9 12 7b 3d
       0.005663885 0.4482292 -0.0486015 0.06129733

fc3.weight f4 [4, 64]
000000 42 6f ee bd 6d 72 7b 3e 31 45 1b bd a3 be 13 bd
       -0.116423145 0.24555369 -0.037907783 -0.036070477
000010 df ef 55 3e c0 70 12 3e 1d 48 85 3e 79 d5 0a 3e
       0.20892285 0.14300823 0.2603158 0.13557996
000020 08 75 0b 3e e3 c1 fa 3d 87 33 40 bc e5 31 0f be
       0.13618863 0.12244012 -0.011731035 -0.13983877
000030 24 c3 c0 be 4d 4c 00 3f 5f c9 65 3d aa 24 ed bd
       -0.3764888 0.50116426 0.056100246 -0.11579259
000040 bd da ca 3e 56 6e 5d 3e 49 c4 64 be 92 85 22 3e
       0.3962001 0.21624121 -0.22340502 0.15871266
000050 6f c2 c6 3d fb b2 45 3e 70 3d 27 3e bc ed 75 be
       0.09705054 0.19306557 0.1633203 -0.2401647
000060 9d a8 ce 3e 98 c7 17 bf 8d 4e 8a be 6f 8d ec 3e
       0.40363017 -0.5928893 -0.27013054 0.46201655
000070 15 0f 71 3e e9 0d 4d 3d 50 52 59 bf 94 56 0a 3e
       0.2354091 0.050062094 -0.84891224 0.1350959
000080 c9 e5 6e 3d cc cc 2b be c7 a3 a1 3e b4 43 d5 3e
       0.05832461 -0.16777343 0.31570265 0.41653216
000090 63 57 bd 3d b5 f5 87 be fd e0 aa be d5 31 2e 3e
       0.09245183 -0.26554647 -0.33374777 0.17011197
0000a0 e0 7f 34 3e 8d f1 17 3e c0 44 22 3e 96 3d 69 bd
       0.17626905 0.14838238 0.15846539 -0.0569435
0000b0 78 e5 26 3f cf 99 50 bd 08 52 65 3e 22 5a ee 3d
       0.6519389 -0.050927933 0.22394574 0.11638285
0000c0 82 8f 8b bd 73 24 f4 3e bd 96 93 3d d6 90 18 3e
       -0.06814481 0.4768406 0.072064854 0.14899
0000d0 74 12 3c 3e d4 5a 72 be dd 72 66 3d ac d4 36 3e
       0.18366414 -0.2366746 0.056261886 0.17854565
0000e0 a6 e9 18 bf e6 64 8f be 16 a0 36 bd 19 82 61 3d
       -0.5973152 -0.28006667 -0.044586264 0.05505571
0000f0 b8 fd d7 bd 24 0a 5e 3e 8e 10 92 bd 61 ec 38 3e
       -0.1054644 0.21683556 -0.07132064 0.18058921
000100 bd 78 83 3e cb 8f 91 3e 1b e5 ba 3b a5 88 c1 bd
       0.25678053 0.28430018 0.005703581 -0.09449891
000110 58 0e 60 3e b6 5d 3b 3e 42 ab 99 3e 09 17 44 3e
       0.21880472 0.18297467 0.30013472 0.19149412
000120 ff e6 d9 3d e3 21 14 3e 40 7f 63 3d 53 62 fe 3d
       0.10639762 0.14466052 0.055541277 0.124210976
000130 03 9a e3 bd 38 c7 8c 3e 0e 3c 00 be 6f 27 02 bd
       -0.1111336 0.27495742 -0.12522909 -0.031775888
000140 09 28 a4 3e c4 84 82 3e d8 7c 59 be 40 08 da 3d
       0.32061794 0.25491917 -0.2123903 0.10646105
000150 9b 44 dc 3d f3 35 76 3e fb 8d be 3c 8b 11 2a be
       0.10755273 0.24044017 0.023261061 -0.16608255
000160 92 a5 f9 3e 81 8b 29 be c2 ef 0d bc b1 bb eb be
       0.48759133 -0.16557123 -0.00866312 -0.46041635
000170 c3 ef dd 3e 2e 8d d3 3d c1 17 1b bd 50 d2 31 3e
       0.43346986 0.10329662 -0.03786445 0.17365384
000180 5a e4 46 be a4 4d 3c be f3 96 a6 3e ba 90 9a 3e
       -0.19423047 -0.18388993 0.3253704 0.30188543
000190 a3 fa 84 3e 8a 4b 2f be c8 5c 75 be 40 ca 69 3e
       0.2597247 -0.1711866 -0.23961174 0.22831059
0001a0 04 de 5a be c6 e4 15 3e 5f 04 03 3e 99 09 8e 3d
       -0.21373755 0.14638051 0.12794636 0.06935424
0001b0 e0 70 13 3f 65 fa 01 be bc 9f 49 3e 02 35 f3 3b
       0.5759411 -0.12693174 0.1968984 0.0074220905
0001c0 a4 2b 20 3d 0a c0 38 3e a4 f2 d5 3d d1 f7 a7 3d
       0.03910412 0.18042007 0.10446671 0.08201564
0001d0 18 98 5c 3e 03 e2 89 be 5d 27 ac 3d 3f 02 75 3e
       0.21542394 -0.26930246 0.084059455 0.23926638
0001e0 72 c9 57 bc b3 40 f9 bd 46 61 b4 3d ce 74 9f 3d
       -0.013170587 -0.121705435 0.08807616 0.077859506
0001f0 63 30 2f be 3e a4 91 3d 1a 5e 62 bd 4f 9d 29 3e
       -0.17108302 0.07111405 -0.055265523 0.16563915
000200 d1 5e 10 bf d9 94 0b 3f e4 ed 66 3e 67 9f 2b be
       -0.5639468 0.54524 0.22551686 -0.16760026
000210 76 1e 84 3e 28 8b c5 3e 73 0e be 3e 3f aa 78 3d
       0.2580449 0.3858273 0.371204 0.060709234
000220 72 b0 d1 3d 48 79 18 3e 23 c6 17 be 25 7b 0f 3e
       0.102387324 0.14890015 -0.14821677 0.1401182
000230 ea 9c f6 3d be 2d 9b 3d 6b 24 f8 be 0f ff 4b 3e
       0.12041648 0.07577084 -0.48465285 0.19921516
000240 a7 fa ea 3e 43 32 7d bb 52 38 8b be b4 4e 77 3d
       0.45894358 -0.0038634695 -0.27191406 0.06037779
000250 7b 28 1b 3e b1 04 34 3e d0 8c b2 be 1a 06 59 bd
       0.15152161 0.17579915 -0.34873056 -0.052984335
000260 d8 3a c7 3e 2b eb 20 3d 78 7c 81 3c 4d a6 28 be
       0.38912082 0.039286774 0.015806422 -0.16469689
000270 09 78 ef 3d 62 c9 7f 3e af d9 0a be ea 1a 62 3d
       0.11692817 0.24979165 -0.13559602 0.05520145
000280 95 4c 1d be a3 a3 3e bf 9f c4 f7 3e 92 37 9a 3d
       -0.15361245 -0.7446844 0.48392197 0.075301304
000290 6f 51 51 3d cd dc b0 be f7 25 c1 be 72 04 b4 3d
       0.05110305 -0.34543458 -0.37724277 0.087899104
0002a0 18 62 9a 3e d5 e4 2e 3e 0e 00 46 3e eb 4e 27 bc
       0.30152965 0.1707948 0.19335958 -0.010211687
0002b0 80 9a 51 3e 86 d0 6e be fa 47 43 3e 2b fb e6 bc
       0.20469093 -0.23321733 0.19070426 -0.028195938
0002c0 a3 92 28 3f 6e 7d e1 3c d6 13 e4 bc ce 7e 82 3e
       0.6584875 0.02752563 -0.02784149 0.2548737
0002d0 9d 66 23 3e 1d b9 d0 3d 9f 68 14 3e 81 95 a7 3e
       0.15957113 0.101915576 0.14493035 0.3273125
0002e0 66 18 37 be db 0d 85 be 0b ef f0 3d 0b 69 05 3e
       -0.17880401 -0.25987133 0.11764344 0.13028352
0002f0 ae 25 a1 be 5e cc 1f 3e a0 3e 21 be 23 e0 8d 3d
       -0.3147406 0.15605304 -0.15746546 0.06927516
000300 8d 01 af bd c6 f3 12 3f a9 a9 c7 bb b5 bf 8a be
       -0.08545218 0.5740322 -0.006093223 -0.27099386
000310 2f d2 a1 3d f4 f6 9c 3e f4 a1 dd 3c 0c 8c fd 3e
       0.079014175 0.3065716 0.027054764 0.4952091
000320 4b 79 6b 3e 6b d3 55 3e 1b ac 49 3e 5f 48 ee be
       0.22995488 0.20881431 0.1969456 -0.4653959
000330 56 e9 19 3d 5e 97 62 3e 16 81 02 3e 97 83 cb 3d
       0.037576042 0.22128054 0.12744555 0.09937208
000340 aa 27 92 3e 74 04 cb 3e 19 7e 30 3d 02 bc 53 3e
       0.28545886 0.39651835 0.043089006 0.20677188
000350 d2 27 92 3d c2 3f 93 3e 31 28 b9 be bc ba 5f bd
       0.07136501 0.2875958 -0.36163476 -0.054621443
000360 30 dd fb 3e 7c 27 00 3d a7 a1 8f be b0 de ac 3e
       0.4919219 0.031287655 -0.28053018 0.33763647
000370 98 b5 1e 3f 65 1e d2 bd 3b 6f 18 3d 08 a0 8f 3d
       0.6199584 -0.102597035 0.037215453 0.070129454
000380 ee e2 45 be 3a 4c a8 be 89 00 07 3d 9b 1e 98 3e
       -0.19324848 -0.32870656 0.032959495 0.2971085
000390 1f c4 ee be 7c 1b a2 bd e1 9a 4d 3e 63 39 0e 3e
       -0.46634004 -0.079153985 0.20078613 0.13889079
0003a0 92 7a df be ce 18 4b 3e 42 75 30 3e 1a 09 32 be
       -0.436482 0.19833681 0.1723223 -0.17386284
0003b0 03 40 fa 3e 2c 38 42 be ce 4f 06 3e 9e c7 d9 bb
       0.48876962 -0.1896674 0.1311638 -0.0066461107
0003c0 35 5a 82 bd d7 fa 38 3e 72 4d d1 3e 2f 1f 27 3e
       -0.06364862 0.18064438 0.408794 0.1632049
0003d0 40 26 eb 3d 02 d7 5e be b7 36 06 3e a0 b3 89 3e
       0.11481905 -0.21761706 0.1310681 0.26894855
0003e0 11 e8 d4 bd 10 20 76 be 22 c3 9b be eb 0f 00 be
       -0.10395826 -0.24035668 -0.30422312 -0.12506072
0003f0 3d c8 8b be d5 fc d1 3d 87 63 90 be 70 0b a3 3c
       -0.27301207 0.10253302 -0.28200933 0.019902915

fc3.bias f4 [4]
000000 6d ec ca 3e ac c1 ae 3e 3e 36 85 3e 8d 03 82 3e
       0.39633504 0.34132135 0.26017946 0.25393334
